black_box_attack_classification/saved_models/first.pt (torch, 33439 bytes, 2 tensors)

weight f4 [10, 784]
00000000: 239b 893c 6e13 64b9 a58c d9bc d75d 19bc
00000010: 2e8e c93c aac4 82bc 4ee7 d53c eaef 8f3c
00000020: 4a2f 58bc b7b0 083d 583b 74bc 2592 0d3c
00000030: 91db 2dbd 0193 12bd 17c9 3cbc f990 abbb
00000040: 1cfc 993b 5cf0 143c 6087 93bc 906f 073d
00000050: 3866 e0bb 133a 7dbc 3a6d c83c 1a48 e3bc
00000060: a101 da3c 37ac bf3c 2ac6 a5bc 13c3 0abc
00000070: 28c2 f93c 9359 b93c 13bc 0f3b 2e3d e7bb
00000080: 70e1 a1bc 40dd 4fbc 7da5 113b d1d6 2cbd
00000090: a9f7 67bd 02e0 cebd 49b9 aabd c13c d93b
000000a0: 0aed dfbc ca77 e1b9 c336 33be 507c 04bd
000000b0: e1f7 c7bc febe 0fbb 4659 0bbe f67b 1bbe
000000c0: 3880 bdbd 6b40 07bd ab47 093b 2b2b d83b
000000d0: 754a d43c ceeb 8c3c fc02 b83c 884d e4bc
000000e0: 3e10 00bd 3097 9c3c 3e87 f5bb 3430 303d
000000f0: 0e6f 333c 8fbc 8abd 2fb2 acbd 17a6 3abd
00000100: 4fc3 44be 630c 71be 57c1 1ebe dca9 2cbe
00000110: 40a7 0cbe 120f 38be 04e0 6abe 5d26 50be
00000120: fcc7 32be 2cb7 67be 033a 46be 96bc 3bbe
00000130: 6d3a 68be 0206 4cbe e54a 56be 31b4 05be
00000140: b4c4 d8bd c203 89bd 1ca5 3a3c 8a55 113d
00000150: 25c9 f6bc 6e2b eaba 3a0e 8a3c 9797 e83c
00000160: 3f31 87bd 03bc 0dbe 7ed4 51be f9df 24be
00000170: c31f 1ebe 6423 29be d8ce 44be 17ec aabd
00000180: 67b6 10be 9593 0abe fdde c7bd 013a 23be
00000190: b83b f6bd 10ae 16be b4e1 57be 01bd 71be
000001a0: 631e 4fbe 3e48 6bbe cdf9 77be 9347 2dbe
000001b0: 672f 12be 9f29 a2bd 9064 d3bd 5333 473c
000001c0: a506 11bd b0a5 92bc c551 f9bc 1211 5bbc
000001d0: b2db 18be 2401 7dbe 859a 41be 5e4f fbbd
000001e0: 7d56 1dbe 17cc fcbd ecc1 c1bd 101f 07be
000001f0: 9924 8cbd 64b7 92bd da01 6b3c 4094 e9bc
00000200: 63eb 47bd 4fdb 29bd 76d8 97bd bce6 d5bd
00000210: 71a3 90bd f49c e6bd 9a71 08be 9337 04be
00000220: 75b2 40be 5779 45be 6088 e8bd b75d dfbc
00000230: b356 c8bc 1045 a63c 72f8 ecbd 4372 adbc
00000240: 43f1 3bbe 805e 8bbe 2e42 32be a3b1 e5bd
00000250: c512 06be e17c e6bd 1ca8 bdbd efe4 9abd
00000260: 7e53 5f3b 2c97 8a3d c603 be3d 2e83 133e
00000270: baad 023e 06cc c33d 20a9 c93d 68f2 453d
00000280: c4ed c23a 2788 3ebc d621 86bd e2b6 27be
00000290: 289b 61be 3cc4 82be aa8a 65be d027 08be
000002a0: f7e6 ae3b d3d9 69bd 3f59 0ebe 159c 3abe
000002b0: 70d7 79be 6b68 e1bd 81dc fcbd 8251 acbd
000002c0: 2abc d1bd 4b9e 06be 1f66 85bd 1a37 14bd
000002d0: 133c 8d3c 8204 993d 887b c43d 3d4a c83d
000002e0: 2796 1e3e 5e15 1d3e 2862 ba3d b2c1 c73d
000002f0: 854d 103d 7019 083d 5651 383d ae96 f2bd
00000300: d119 6bbe 4271 acbe fae3 9ebe 7e15 f4bd
00000310: e496 3abd ac09 d6bd c12d 0bbe 5a7f 21be
00000320: 3dcb 3ebe 9742 81bd ccde 89bd bc1d 94bd
00000330: b326 b9bd afad c3bd b335 95bc 52eb 1dbc
00000340: 1376 30ba 6712 5a3b 46ec 5c3d f3f4 ac3d
00000350: 22cf 0b3e c340 2f3e 74d0 303e 5d9c d23d
00000360: 5bdc 6c3d f465 6a3d 265f 0d3d 947b 25bd
00000370: a8d2 7bbe c983 abbe 83ca a6be 757b 88bd
00000380: 57e5 9a3d a7d3 a3bd 3158 b3bd 637a cdbd
00000390: 448c 58be 2bbd 18be 23e3 eabd 97e9 f7bd
000003a0: 9d28 b6bd a372 05bd 89d8 56bd 893e d7bb
000003b0: 58de b43c 48ca d03b 4774 ab3c f1a5 d83d
000003c0: 30a9 003e 15a8 5a3e 6b27 213e 21a5 053e
000003d0: 10aa 963d f6b5 a63c ed18 8f3d 4099 b43d
000003e0: 4e1e 64be a04a acbe f957 aebe e947 3abe
000003f0: 9307 36bd dfde 9abd 3c96 49bd a3a5 cebd
0.016797608 -0.00021751013 -0.026556322 -0.009360752 0.02460393 -0.015962917 0.026111271 0.017570455
-0.013194868 0.033371653 -0.014906727 0.008640801 -0.042445723 -0.035784725 -0.011522553 -0.005235788
0.004699243 0.009090509 -0.018008888 0.03306538 -0.006848123 -0.0154557405 0.024466146 -0.027744342
0.026612105 0.023397548 -0.020236094 -0.008469361 0.030488089 0.02262572 0.002193217 -0.0070568537
-0.019760817 -0.012687027 0.0022223883 -0.042197052 -0.05663267 -0.1010132 -0.083361216 0.006629557
-0.027334709 -0.00043004594 -0.17501359 -0.032345116 -0.02441019 -0.0021933909 -0.13608274 -0.15184006
-0.092529714 -0.033020418 0.0020947258 0.006596943 0.02591441 0.017202284 0.02246236 -0.027869001
-0.03126549 0.01911506 -0.0074929288 0.04301472 0.0109517705 -0.06774246 -0.08432423 -0.045568552
-0.1921513 -0.23539881 -0.15503441 -0.16861671 -0.13735676 -0.17974499 -0.22937018 -0.20327134
-0.174591 -0.22628468 -0.19358067 -0.18333659 -0.22678538 -0.19924167 -0.20927007 -0.13057019
-0.10584393 -0.0669017 0.011391904 0.035481967 -0.03012521 -0.0017865726 0.016852487 0.028392596
-0.0660119 -0.13841252 -0.20491216 -0.16101064 -0.15441804 -0.16517407 -0.1921953 -0.08345812
-0.14132081 -0.1353286 -0.097593285 -0.15940095 -0.12023109 -0.14714837 -0.21082193 -0.23607256
-0.20226435 -0.22976777 -0.24216385 -0.16921835 -0.14275895 -0.07918095 -0.10321915 0.012158233
-0.035406727 -0.017901272 -0.030434499 -0.013370769 -0.14927557 -0.24707466 -0.18906601 -0.122709975
-0.15365024 -0.123436145 -0.09460816 -0.13195443 -0.06842918 -0.07163885 0.014343703 -0.028513074
-0.048808467 -0.041468915 -0.074143335 -0.104444 -0.07062424 -0.11260405 -0.13324586 -0.12911825
-0.18818076 -0.19284569 -0.113541365 -0.027266366 -0.024455404 0.020296603 -0.11570825 -0.021172648
-0.18353753 -0.27220535 -0.17408058 -0.11215522 -0.13093098 -0.112542875 -0.0926058 -0.07563197
0.0034076865 0.06767115 0.092780635 0.1440551 0.12761584 0.09560399 0.09846711 0.04832688
0.0014871885 -0.011629141 -0.065494224 -0.16378358 -0.22031844 -0.2554034 -0.22416177 -0.13296437
0.0053375917 -0.0570925 -0.13901232 -0.18223603 -0.24398589 -0.11006244 -0.12346745 -0.08413984
-0.102409676 -0.13146321 -0.06513619 -0.03618536 0.01724056 0.07471563 0.09593874 0.09779785
0.15486966 0.15340182 0.09100753 0.09753741 0.03523018 0.033227384 0.044999443 -0.11845146
-0.22959067 -0.3368016 -0.31033307 -0.11918162 -0.045554057 -0.104510635 -0.13591672 -0.15771237
-0.18632217 -0.06311529 -0.06731948 -0.07232234 -0.090405844 -0.09554612 -0.018214082 -0.009638624
-0.00067314616 0.0033275129 0.053936265 0.08445158 0.13653234 0.17114548 0.17267019 0.1028373
0.057827335 0.057226136 0.03451457 -0.040401056 -0.24592078 -0.33498982 -0.3257638 -0.066641726
0.07563274 -0.07999354 -0.087570556 -0.10033109 -0.21147257 -0.14915912 -0.11469104 -0.121051006
-0.08894465 -0.03258003 -0.052452598 -0.006568734 0.022078678 0.00637177 0.020929469 0.10578526
0.1256454 0.2135318 0.15737693 0.13051273 0.073566556 0.020350438 0.06987176 0.088182926
-0.22277185 -0.33650684 -0.34051493 -0.18191494 -0.044440817 -0.075620405 -0.04921554 -0.100901864

bias f4 [10]
00000000: cf5e 23be ded2 7a3e 9b71 31bd a2e7 12be
00000010: fc7d b73d f2ce ac3e a278 92bd daac 703e
00000020: f479 c0be caa8 86bd
-0.15954135 0.24494502 -0.043321233 -0.14346173 0.089595765 0.33751637 -0.07151915 0.23503438
-0.37593043 -0.06575163
