black_box_attack_classification/saved_models/firstsub.pt (torch, 33515 bytes, 2 tensors)

weight f4 [10, 784]
-0.0015392132 -0.023055907 -0.0099931415 -0.049118377 -0.018284706 -0.018137451 0.01270957 0.024157723
-0.013128021 -0.019673958 0.041833807 -0.042138394 -0.011195262 0.041762743 -0.014529734 -0.044266574
-0.010638442 -0.025947087 -0.041504513 -0.011502853 0.03109928 0.033445016 -0.018315498 0.048213374
-0.016944736 -0.012059072 0.030364553 -0.025911262 0.033264834 0.005212911 0.01845164 0.032112673
-0.022613058 -0.035472643 -0.007912814 0.046813816 -0.007901602 -0.042650186 0.0024654134 -0.048243772
0.016185692 0.05345684 -0.036787763 0.032891303 -0.018608265 -0.035338596 -0.052112214 0.020863634
0.038777437 -0.049610972 0.030702874 0.020555064 0.019075695 -0.002128978 0.0011260929 -0.02922305
0.045686156 0.017119061 0.03774811 -0.004308116 0.009626894 0.0291068 0.013543878 0.010314102
0.020805692 0.002198154 -0.019013463 -0.031082315 0.0017045233 0.006449319 -0.037632983 -0.058804285
-0.032174293 -0.045894124 0.0013441957 -0.005702938 0.0043778648 0.028055228 -0.039753504 -0.03100556
0.01618307 0.05109158 0.05208594 0.008369535 0.008781143 -0.026134264 0.010086598 -0.033504035
-0.04977392 0.018018326 -0.015977357 -0.051809378 0.031615827 0.04103377 0.024740016 -0.008014026
-0.021450793 -0.0093242405 -0.052670766 -0.013410582 -0.03624314 0.004460793 0.01199953 0.030658847
-0.016333831 -0.014616976 0.018532865 0.034005295 0.014322688 0.018995961 -0.001163345 -0.0114551205
-0.025996791 0.03671343 -0.051765453 -0.048091196 -0.021768179 0.026476014 0.015726332 -0.014451459
-0.03201797 -0.0012487225 -0.008390345 -0.014736447 0.03729608 0.010604819 0.01154099 0.01537013
0.042381845 -0.032516457 -0.013529244 -0.023407495 -0.011317083 -0.018134102 0.010461344 -0.022306848
-0.037953615 -0.032069847 0.008450243 0.053664424 -0.0534374 0.01289195 -0.042764395 0.04128385
-0.04173212 -0.0059847394 -0.041192472 -0.018002585 -0.0368706 -0.050048757 -0.05084455 0.0018954916
0.019669747 -0.00835871 0.010239763 0.04515664 0.0068412535 0.05580565 0.042790294 -0.018469661
-0.01315487 0.0023458733 0.0080587175 -0.013410046 -0.035852943 -0.038998835 -0.035246197 0.01094656
0.0039278753 0.008952064 0.017537933 -0.0047091725 -0.04337619 0.02343014 0.027047805 -0.0015514771
-0.058625095 0.0027759685 0.050215643 -0.020946654 -0.045833573 -0.045278236 -0.038661826 0.017823141
0.0081589185 -0.030705329 0.049655806 0.008796604 -0.018024798 -0.0066406946 -0.007910388 -0.03759775
0.006825476 0.040939398 -0.013260853 0.018802414 0.007911471 0.00089588895 0.049465783 0.0077165198
-0.0036273887 -0.010538033 0.026274886 -0.011053534 -0.01813018 -0.00989866 -0.03391486 0.029537994
-0.0064681065 -0.040094424 -0.016510246 0.01387599 0.04028878 0.00066243217 -0.04107879 -0.014123583
0.041038033 0.008289751 -0.006001882 -0.048124738 -0.048892576 -0.009619387 -0.020568091 -0.0032153216
0.022298964 0.049479946 -0.01103482 -0.0377895 0.0019045669 0.00996093 0.012914535 0.039098643
-0.006245879 -0.051394876 -0.0015061116 -0.015678648 0.019627927 0.02372905 -0.00031073604 0.019392774
-0.019221157 -0.041214786 -0.0017187081 -0.018434023 0.0007401214 0.04800182 0.0077907383 -0.04320114
0.008462764 -0.017457627 -0.0024006322 0.007944787 0.021371085 0.04583452 0.007645827 0.052504424
00000000: 6dbf c9ba bedf bcbc 46ba 23bc 5a30 49bd
00000010: cfc9 95bc fe94 94bc cd3b 503c 6be6 c53c
00000020: e916 57bc 482b a1bc ed59 2b3d 4f99 2cbd
00000030: 556c 37bc 690f 2b3d 1f0e 6ebc de50 35bd
00000040: dc4c 2ebc fc8e d4bc a300 2abd 7676 3cbc
00000050: ebc3 fe3c a4fd 083d 620a 96bc 637b 453d
00000060: b0cf 8abc 6a93 45bc 15bf f83c db43 d4bc
00000070: b540 083d 11d1 aa3b e527 973c 9488 033d
00000080: 053f b9bc c34b 11bd bfa4 01bc d8bf 3f3d
00000090: b975 01bc f6b1 2ebd c692 213b 439b 45bd
000000a0: db97 843c 8ff5 5a3d c4ae 16bd 08b9 063d
000000b0: 5c70 98bc 34bf 10bd 9e73 55bd 36ea aa3c
000000c0: 17d5 1e3d e034 4bbd 9884 fb3c 1863 a83c
000000d0: a244 9c3c 5386 0bbb 6899 933a 2e65 efbc
000000e0: 6821 3b3d 463d 8c3c c39d 1a3d 192b 8dbb
000000f0: 1fba 1d3c 6271 ee3c 24e7 5d3c 7bfc 283c
00000100: b370 aa3c e80e 103b 1fc2 9bbc 57a0 febc
00000110: 506a df3a cf54 d33b 0b25 1abd c3dc 70bd
00000120: 31c9 03bd 7afb 3bbd b92f b03a b6df babb
00000130: 3174 8f3b 14d4 e53c 92d4 22bd 5fff fdbc
00000140: 5c92 843c 6845 513d 1158 553d 6020 093c
00000150: c9de 0f3c 8617 d6bc 4242 253c 873b 09bd
00000160: bddf 4bbd 2b9b 933c f2e2 82bc 1236 54bd
00000170: 997f 013d 0713 283d 93ab ca3c 434d 03bc
00000180: 93b9 afbc b3c4 18bc 4dbd 57bd 0fb8 5bbc
00000190: b073 14bd d82b 923b ad99 443c 4328 fb3c
000001a0: 87ce 85bc 0a7c 6fbc 3cd2 973c 2349 0b3d
000001b0: b5a9 6a3c 6b9d 9b3c 617b 98ba 42ae 3bbc
000001c0: 39f7 d4bc d260 163d 0308 54bd 46fb 44bd
000001d0: 2e53 b2bc 3ae4 d83c 82d4 803c d0c5 6cbc
000001e0: 4625 03bd 2dac a3ba a877 09bc 2371 71bc
000001f0: c6c3 183d d6bf 2d3c 6c16 3d3c ffd2 7b3c
00000200: 9698 2d3d fa2f 05bd c3a9 5dbc 13c1 bfbc
00000210: 496b 39bc f88d 94bc 0f66 2b3c dabc b6bc
00000220: 4075 1bbd ac5b 03bd e372 0a3c 3acf 5b3d
00000230: 2de1 5abd c238 533c b829 2fbd 4119 293d
00000240: 4def 2abd a21b c4bb 70b9 28bd 287a 93bc
00000250: a005 17bd edff 4cbd 6042 50bd 2572 f83a
00000260: 7322 a13c f9f2 08bc aec4 273c 2bf6 383d
00000270: 982c e03b 7794 643d e044 2f3d b04d 97bc
00000280: 8687 57bc 39bd 193b b608 043c cfb5 5bbc
00000290: 89da 12bd 3ebd 1fbd 515e 10bd 3359 333c
000002a0: 68b5 803b aeab 123c b6ab 8f3c 674f 9abb
000002b0: 3bab 31bd 91f0 bf3c 5c93 dd3c ef5a cbba
000002c0: de20 70bd 06ed 353b ebae 4d3d 5198 abbc
000002d0: fcbb 3bbd ac75 39bd dd5b 1ebd d601 923c
000002e0: fcac 053c be89 fbbc e363 4b3d a21f 103c
000002f0: bea8 93bc 2f9a d9bb 929a 01bc 1900 1abd
00000300: 3ea8 df3b 12b0 273d 0c44 59bc 8507 9a3c
00000310: 1d9f 013c 17da 6a3a a29c 4a3d dcda fc3b
00000320: 7cb9 6dbb b7a7 2cbc 6e3e d73c e219 35bc
00000330: be85 94bc fd2d 22bc 4fea 0abd aaf9 f13c
00000340: 69f2 d3bb 0d3a 24bd 7f40 87bc 1f58 633c
00000350: d905 253d 12a7 2d3a 3c42 28bd 9a66 67bc
00000360: 7f17 283d bcd1 073c 6fab c4bb 721e 45bd
00000370: 9543 48bd a29a 1dbc 6a7e a8bc 25b8 52bb
00000380: 51ac b63c 7cab 4a3d 64cb 34bc 2ac9 1abd
00000390: a9a2 f93a 2b33 233c 7c97 533c e625 203d
000003a0: 3baa ccbb 6f83 52bd b868 c5ba 8270 80bc
000003b0: bfca a03c 6d63 c23c 49ea a2b9 98dd 9e3c
000003c0: b075 9dbc d6d0 28bd 4646 e1ba f302 97bc
000003d0: b504 423a 8e9d 443d 7349 ff3b aef3 30bd
000003e0: 68a7 0a3c 4c03 8fbc ed53 1dbb da2a 023c
000003f0: 6a12 af3c fabc 3b3d d889 fa3b e10e 573d

bias f4 [10]
0.01447924 0.041632302 -0.024080269 0.014081038 0.046125937 -0.030943032 -0.03618317 0.037369847
0.034411233 -0.026104081
00000000: 563a 6d3c a286 2a3d fc43 c5bc 27b4 663c
00000010: 8dee 3c3d 3e7c fdbc ce34 14bd 2011 193d
00000020: cbf2 0c3d 3ad8 d5bc
